…
2022-05-31 19:29:34,166 - mmseg - WARNING - Error in loading pos_embed, pass
2022-05-31 19:29:34,320 - mmseg - INFO - initialize UPerHead with init_cfg {'type': 'Normal', 'std': 0.01, 'override': {'name': 'conv_seg'}}
2022-05-31 19:29:34,912 - mmseg - INFO - initialize FCNHead with init_cfg {'type': 'Normal', 'std': 0.01, 'override': {'name': 'conv_seg'}}
tools/train.py:204: UserWarning: SyncBN is only supported with DDP. To be compatible with DP, we convert SyncBN to BN. Please use dist_train.sh which can avoid this error.
  warnings.warn(
2022-05-31 19:29:34,924 - mmseg - INFO - EncoderDecoder(
  (backbone): MAE(
    (patch_embed): PatchEmbed(
      (projection): Conv2d(3, 196, kernel_size=(8, 8), stride=(8, 8))
    )
    (layers): ModuleList(
      (0): MAETransformerEncoderLayer(
        (ln1): LayerNorm((196,), eps=1e-06, elementwise_affine=True)
        (attn): BEiTAttention(
          (qkv): Linear(in_features=196, out_features=588, bias=True)
          (attn_drop): Dropout(p=0.0, inplace=False)
          (proj): Linear(in_features=196, out_features=196, bias=True)
          (proj_drop): Dropout(p=0.0, inplace=False)
        )
        (ln2): LayerNorm((196,), eps=1e-06, elementwise_affine=True)
        (ffn): FFN(
          (activate): GELU()
          (layers): Sequential(
            (0): Sequential(
              (0): Linear(in_features=196, out_features=784, bias=True)
              (1): GELU()
              (2): Dropout(p=0.0, inplace=False)
            )
            (1): Linear(in_features=784, out_features=196, bias=True)
            (2): Dropout(p=0.0, inplace=False)
          )
          (dropout_layer): Identity()
        )
        (drop_path): DropPath()
      )
      (1): MAETransformerEncoderLayer(
        (ln1): LayerNorm((196,), eps=1e-06, elementwise_affine=True)
        (attn): BEiTAttention(
          (qkv): Linear(in_features=196, out_features=588, bias=True)
          (attn_drop): Dropout(p=0.0, inplace=False)
          (proj): Linear(in_features=196, out_features=196, bias=True)
          (proj_drop): Dropout(p=0.0, inplace=False)
        )
        (ln2): LayerNorm((196,), eps=1e-06, elementwise_affine=True)
        (ffn): FFN(
          (activate): GELU()
          (layers): Sequential(
            (0): Sequential(
              (0): Linear(in_features=196, out_features=784, bias=True)
              (1): GELU()
              (2): Dropout(p=0.0, inplace=False)
            )
            (1): Linear(in_features=784, out_features=196, bias=True)
            (2): Dropout(p=0.0, inplace=False)
          )
          (dropout_layer): Identity()
        )
        (drop_path): DropPath()
      )
      (2): MAETransformerEncoderLayer(
        (ln1): LayerNorm((196,), eps=1e-06, elementwise_affine=True)
        (attn): BEiTAttention(
          (qkv): Linear(in_features=196, out_features=588, bias=True)
          (attn_drop): Dropout(p=0.0, inplace=False)
          (proj): Linear(in_features=196, out_features=196, bias=True)
          (proj_drop): Dropout(p=0.0, inplace=False)
        )
        (ln2): LayerNorm((196,), eps=1e-06, elementwise_affine=True)
        (ffn): FFN(
          (activate): GELU()
          (layers): Sequential(
            (0): Sequential(
              (0): Linear(in_features=196, out_features=784, bias=True)
              (1): GELU()
              (2): Dropout(p=0.0, inplace=False)
            )
            (1): Linear(in_features=784, out_features=196, bias=True)
            (2): Dropout(p=0.0, inplace=False)
          )
          (dropout_layer): Identity()
        )
        (drop_path): DropPath()
      )
      (3): MAETransformerEncoderLayer(
        (ln1): LayerNorm((196,), eps=1e-06, elementwise_affine=True)
        (attn): BEiTAttention(
          (qkv): Linear(in_features=196, out_features=588, bias=True)
          (attn_drop): Dropout(p=0.0, inplace=False)
          (proj): Linear(in_features=196, out_features=196, bias=True)
          (proj_drop): Dropout(p=0.0, inplace=False)
        )
        (ln2): LayerNorm((196,), eps=1e-06, elementwise_affine=True)
        (ffn): FFN(
          (activate): GELU()
          (layers): Sequential(
            (0): Sequential(
              (0): Linear(in_features=196, out_features=784, bias=True)
              (1): GELU()
              (2): Dropout(p=0.0, inplace=False)
            )
            (1): Linear(in_features=784, out_features=196, bias=True)
            (2): Dropout(p=0.0, inplace=False)
          )
          (dropout_layer): Identity()
        )
        (drop_path): DropPath()
      )
      (4): MAETransformerEncoderLayer(
        (ln1): LayerNorm((196,), eps=1e-06, elementwise_affine=True)
        (attn): BEiTAttention(
          (qkv): Linear(in_features=196, out_features=588, bias=True)
          (attn_drop): Dropout(p=0.0, inplace=False)
          (proj): Linear(in_features=196, out_features=196, bias=True)
          (proj_drop): Dropout(p=0.0, inplace=False)
        )
        (ln2): LayerNorm((196,), eps=1e-06, elementwise_affine=True)
        (ffn): FFN(
          (activate): GELU()
          (layers): Sequential(
            (0): Sequential(
              (0): Linear(in_features=196, out_features=784, bias=True)
              (1): GELU()
              (2): Dropout(p=0.0, inplace=False)
            )
            (1): Linear(in_features=784, out_features=196, bias=True)
            (2): Dropout(p=0.0, inplace=False)
          )
          (dropout_layer): Identity()
        )
        (drop_path): DropPath()
      )
      (5): MAETransformerEncoderLayer(
        (ln1): LayerNorm((196,), eps=1e-06, elementwise_affine=True)
        (attn): BEiTAttention(
          (qkv): Linear(in_features=196, out_features=588, bias=True)
          (attn_drop): Dropout(p=0.0, inplace=False)
          (proj): Linear(in_features=196, out_features=196, bias=True)
          (proj_drop): Dropout(p=0.0, inplace=False)
        )
        (ln2): LayerNorm((196,), eps=1e-06, elementwise_affine=True)
        (ffn): FFN(
          (activate): GELU()
          (layers): Sequential(
            (0): Sequential(
              (0): Linear(in_features=196, out_features=784, bias=True)
              (1): GELU()
              (2): Dropout(p=0.0, inplace=False)
            )
            (1): Linear(in_features=784, out_features=196, bias=True)
            (2): Dropout(p=0.0, inplace=False)
          )
          (dropout_layer): Identity()
        )
        (drop_path): DropPath()
      )
      (6): MAETransformerEncoderLayer(
        (ln1): LayerNorm((196,), eps=1e-06, elementwise_affine=True)
        (attn): BEiTAttention(
          (qkv): Linear(in_features=196, out_features=588, bias=True)
          (attn_drop): Dropout(p=0.0, inplace=False)
          (proj): Linear(in_features=196, out_features=196, bias=True)
          (proj_drop): Dropout(p=0.0, inplace=False)
        )
        (ln2): LayerNorm((196,), eps=1e-06, elementwise_affine=True)
        (ffn): FFN(
          (activate): GELU()
          (layers): Sequential(
            (0): Sequential(
              (0): Linear(in_features=196, out_features=784, bias=True)
              (1): GELU()
              (2): Dropout(p=0.0, inplace=False)
            )
            (1): Linear(in_features=784, out_features=196, bias=True)
            (2): Dropout(p=0.0, inplace=False)
          )
          (dropout_layer): Identity()
        )
        (drop_path): DropPath()
      )
      (7): MAETransformerEncoderLayer(
        (ln1): LayerNorm((196,), eps=1e-06, elementwise_affine=True)
        (attn): BEiTAttention(
          (qkv): Linear(in_features=196, out_features=588, bias=True)
          (attn_drop): Dropout(p=0.0, inplace=False)
          (proj): Linear(in_features=196, out_features=196, bias=True)
          (proj_drop): Dropout(p=0.0, inplace=False)
        )
        (ln2): LayerNorm((196,), eps=1e-06, elementwise_affine=True)
        (ffn): FFN(
          (activate): GELU()
          (layers): Sequential(
            (0): Sequential(
              (0): Linear(in_features=196, out_features=784, bias=True)
              (1): GELU()
              (2): Dropout(p=0.0, inplace=False)
            )
            (1): Linear(in_features=784, out_features=196, bias=True)
            (2): Dropout(p=0.0, inplace=False)
          )
          (dropout_layer): Identity()
        )
        (drop_path): DropPath()
      )
      (8): MAETransformerEncoderLayer(
        (ln1): LayerNorm((196,), eps=1e-06, elementwise_affine=True)
        (attn): BEiTAttention(
          (qkv): Linear(in_features=196, out_features=588, bias=True)
          (attn_drop): Dropout(p=0.0, inplace=False)
          (proj): Linear(in_features=196, out_features=196, bias=True)
          (proj_drop): Dropout(p=0.0, inplace=False)
        )
        (ln2): LayerNorm((196,), eps=1e-06, elementwise_affine=True)
        (ffn): FFN(
          (activate): GELU()
          (layers): Sequential(
            (0): Sequential(
              (0): Linear(in_features=196, out_features=784, bias=True)
              (1): GELU()
              (2): Dropout(p=0.0, inplace=False)
            )
            (1): Linear(in_features=784, out_features=196, bias=True)
            (2): Dropout(p=0.0, inplace=False)
          )
          (dropout_layer): Identity()
        )
        (drop_path): DropPath()
      )
      (9): MAETransformerEncoderLayer(
        (ln1): LayerNorm((196,), eps=1e-06, elementwise_affine=True)
        (attn): BEiTAttention(
          (qkv): Linear(in_features=196, out_features=588, bias=True)
          (attn_drop): Dropout(p=0.0, inplace=False)
          (proj): Linear(in_features=196, out_features=196, bias=True)
          (proj_drop): Dropout(p=0.0, inplace=False)
        )
        (ln2): LayerNorm((196,), eps=1e-06, elementwise_affine=True)
        (ffn): FFN(
          (activate): GELU()
          (layers): Sequential(
            (0): Sequential(
              (0): Linear(in_features=196, out_features=784, bias=True)
              (1): GELU()
              (2): Dropout(p=0.0, inplace=False)
            )
            (1): Linear(in_features=784, out_features=196, bias=True)
            (2): Dropout(p=0.0, inplace=False)
          )
          (dropout_layer): Identity()
        )
        (drop_path): DropPath()
      )
      (10): MAETransformerEncoderLayer(
        (ln1): LayerNorm((196,), eps=1e-06, elementwise_affine=True)
        (attn): BEiTAttention(
          (qkv): Linear(in_features=196, out_features=588, bias=True)
          (attn_drop): Dropout(p=0.0, inplace=False)
          (proj): Linear(in_features=196, out_features=196, bias=True)
          (proj_drop): Dropout(p=0.0, inplace=False)
        )
        (ln2): LayerNorm((196,), eps=1e-06, elementwise_affine=True)
        (ffn): FFN(
          (activate): GELU()
          (layers): Sequential(
            (0): Sequential(
              (0): Linear(in_features=196, out_features=784, bias=True)
              (1): GELU()
              (2): Dropout(p=0.0, inplace=False)
            )
            (1): Linear(in_features=784, out_features=196, bias=True)
            (2): Dropout(p=0.0, inplace=False)
          )
          (dropout_layer): Identity()
        )
        (drop_path): DropPath()
      )
      (11): MAETransformerEncoderLayer(
        (ln1): LayerNorm((196,), eps=1e-06, elementwise_affine=True)
        (attn): BEiTAttention(
          (qkv): Linear(in_features=196, out_features=588, bias=True)
          (attn_drop): Dropout(p=0.0, inplace=False)
          (proj): Linear(in_features=196, out_features=196, bias=True)
          (proj_drop): Dropout(p=0.0, inplace=False)
        )
        (ln2): LayerNorm((196,), eps=1e-06, elementwise_affine=True)
        (ffn): FFN(
          (activate): GELU()
          (layers): Sequential(
            (0): Sequential(
              (0): Linear(in_features=196, out_features=784, bias=True)
              (1): GELU()
              (2): Dropout(p=0.0, inplace=False)
            )
            (1): Linear(in_features=784, out_features=196, bias=True)
            (2): Dropout(p=0.0, inplace=False)
          )
          (dropout_layer): Identity()
        )
        (drop_path): DropPath()
      )
    )
  )
  init_cfg={'type': 'Pretrained', 'checkpoint': './pretrain/mae_pretrain_vit_base_mmcls.pth'}
  (neck): Feature2Pyramid(
    (upsample_4x): Sequential(
      (0): ConvTranspose2d(768, 768, kernel_size=(2, 2), stride=(2, 2))
      (1): _BatchNormXd(768, eps=1e-05, momentum=0.1, affine=True, track_running_stats=True)
      (2): GELU()
      (3): ConvTranspose2d(768, 768, kernel_size=(2, 2), stride=(2, 2))
    )
    (upsample_2x): Sequential(
      (0): ConvTranspose2d(768, 768, kernel_size=(2, 2), stride=(2, 2))
    )
    (identity): Identity()
    (downsample_2x): MaxPool2d(kernel_size=2, stride=2, padding=0, dilation=1, ceil_mode=False)
  )
  (decode_head): UPerHead(
    input_transform=multiple_select, ignore_index=255, align_corners=False
    (loss_decode): CrossEntropyLoss(avg_non_ignore=False)
    (conv_seg): Conv2d(768, 4, kernel_size=(1, 1), stride=(1, 1))
    (dropout): Dropout2d(p=0.1, inplace=False)
    (psp_modules): PPM(
      (0): Sequential(
        (0): AdaptiveAvgPool2d(output_size=1)
        (1): ConvModule(
          (conv): Conv2d(768, 768, kernel_size=(1, 1), stride=(1, 1), bias=False)
          (bn): _BatchNormXd(768, eps=1e-05, momentum=0.1, affine=True, track_running_stats=True)
          (activate): ReLU(inplace=True)
        )
      )
      (1): Sequential(
        (0): AdaptiveAvgPool2d(output_size=2)
        (1): ConvModule(
          (conv): Conv2d(768, 768, kernel_size=(1, 1), stride=(1, 1), bias=False)
          (bn): _BatchNormXd(768, eps=1e-05, momentum=0.1, affine=True, track_running_stats=True)
          (activate): ReLU(inplace=True)
        )
      )
      (2): Sequential(
        (0): AdaptiveAvgPool2d(output_size=3)
        (1): ConvModule(
          (conv): Conv2d(768, 768, kernel_size=(1, 1), stride=(1, 1), bias=False)
          (bn): _BatchNormXd(768, eps=1e-05, momentum=0.1, affine=True, track_running_stats=True)
          (activate): ReLU(inplace=True)
        )
      )
      (3): Sequential(
        (0): AdaptiveAvgPool2d(output_size=6)
        (1): ConvModule(
          (conv): Conv2d(768, 768, kernel_size=(1, 1), stride=(1, 1), bias=False)
          (bn): _BatchNormXd(768, eps=1e-05, momentum=0.1, affine=True, track_running_stats=True)
          (activate): ReLU(inplace=True)
        )
      )
    )
    (bottleneck): ConvModule(
      (conv): Conv2d(3840, 768, kernel_size=(3, 3), stride=(1, 1), padding=(1, 1), bias=False)
      (bn): _BatchNormXd(768, eps=1e-05, momentum=0.1, affine=True, track_running_stats=True)
      (activate): ReLU(inplace=True)
    )
    (lateral_convs): ModuleList(
      (0): ConvModule(
        (conv): Conv2d(768, 768, kernel_size=(1, 1), stride=(1, 1), bias=False)
        (bn): _BatchNormXd(768, eps=1e-05, momentum=0.1, affine=True, track_running_stats=True)
        (activate): ReLU()
      )
      (1): ConvModule(
        (conv): Conv2d(768, 768, kernel_size=(1, 1), stride=(1, 1), bias=False)
        (bn): _BatchNormXd(768, eps=1e-05, momentum=0.1, affine=True, track_running_stats=True)
        (activate): ReLU()
      )
      (2): ConvModule(
        (conv): Conv2d(768, 768, kernel_size=(1, 1), stride=(1, 1), bias=False)
        (bn): _BatchNormXd(768, eps=1e-05, momentum=0.1, affine=True, track_running_stats=True)
        (activate): ReLU()
      )
    )
    (fpn_convs): ModuleList(
      (0): ConvModule(
        (conv): Conv2d(768, 768, kernel_size=(3, 3), stride=(1, 1), padding=(1, 1), bias=False)
        (bn): _BatchNormXd(768, eps=1e-05, momentum=0.1, affine=True, track_running_stats=True)
        (activate): ReLU()
      )
      (1): ConvModule(
        (conv): Conv2d(768, 768, kernel_size=(3, 3), stride=(1, 1), padding=(1, 1), bias=False)
        (bn): _BatchNormXd(768, eps=1e-05, momentum=0.1, affine=True, track_running_stats=True)
        (activate): ReLU()
      )
      (2): ConvModule(
        (conv): Conv2d(768, 768, kernel_size=(3, 3), stride=(1, 1), padding=(1, 1), bias=False)
        (bn): _BatchNormXd(768, eps=1e-05, momentum=0.1, affine=True, track_running_stats=True)
        (activate): ReLU()
      )
    )
    (fpn_bottleneck): ConvModule(
      (conv): Conv2d(3072, 768, kernel_size=(3, 3), stride=(1, 1), padding=(1, 1), bias=False)
      (bn): _BatchNormXd(768, eps=1e-05, momentum=0.1, affine=True, track_running_stats=True)
      (activate): ReLU(inplace=True)
    )
  )
  init_cfg={'type': 'Normal', 'std': 0.01, 'override': {'name': 'conv_seg'}}
  (auxiliary_head): FCNHead(
    input_transform=None, ignore_index=255, align_corners=False
    (loss_decode): CrossEntropyLoss(avg_non_ignore=False)
    (conv_seg): Conv2d(256, 4, kernel_size=(1, 1), stride=(1, 1))
    (dropout): Dropout2d(p=0.1, inplace=False)
    (convs): Sequential(
      (0): ConvModule(
        (conv): Conv2d(768, 256, kernel_size=(3, 3), stride=(1, 1), padding=(1, 1), bias=False)
        (bn): _BatchNormXd(256, eps=1e-05, momentum=0.1, affine=True, track_running_stats=True)
        (activate): ReLU(inplace=True)
      )
    )
  )
  init_cfg={'type': 'Normal', 'std': 0.01, 'override': {'name': 'conv_seg'}}
)
2022-05-31 19:29:35,165 - mmseg - INFO - Loaded 1535 images
2022-05-31 19:29:35,172 - mmseg - INFO - Loaded 304 images
…
